…
2019-12-19 21:56:36.822905: I tensorflow/core/common_runtime/gpu/gpu_device.cc:1304] Created TensorFlow device (/job:localhost/replica:0/task:0/device:GPU:0 with 15235 MB memory) -> physical GPU (device: 0, name: Quadro P5000, pci bus id: 0000:65:00.0, compute capability: 6.1)
2019-12-19 21:56:40.356248: I tensorflow/stream_executor/platform/default/dso_loader.cc:44] Successfully opened dynamic library libcublas.so.10.0
2019-12-19 21:56:40.547063: I tensorflow/stream_executor/platform/default/dso_loader.cc:44] Successfully opened dynamic library libcudnn.so.7
Model: "sequential_1"
_________________________________________________________________
Layer (type)                 Output Shape              Param #   
=================================================================
conv2d_1 (Conv2D)            (None, 62, 62, 32)        896       
_________________________________________________________________
max_pooling2d_1 (MaxPooling2 (None, 31, 31, 32)        0         
_________________________________________________________________
batch_normalization_1 (Batch (None, 31, 31, 32)        128       
_________________________________________________________________
dropout_1 (Dropout)          (None, 31, 31, 32)        0         
_________________________________________________________________
conv2d_2 (Conv2D)            (None, 29, 29, 32)        9248      
_________________________________________________________________
max_pooling2d_2 (MaxPooling2 (None, 14, 14, 32)        0         
_________________________________________________________________
batch_normalization_2 (Batch (None, 14, 14, 32)        128       
_________________________________________________________________
dropout_2 (Dropout)          (None, 14, 14, 32)        0         
_________________________________________________________________
flatten_1 (Flatten)          (None, 6272)              0         
_________________________________________________________________
dense_1 (Dense)              (None, 512)               3211776   
_________________________________________________________________
batch_normalization_3 (Batch (None, 512)               2048      
_________________________________________________________________
dropout_3 (Dropout)          (None, 512)               0         
_________________________________________________________________
dense_2 (Dense)              (None, 256)               131328    
_________________________________________________________________
batch_normalization_4 (Batch (None, 256)               1024      
_________________________________________________________________
dropout_4 (Dropout)          (None, 256)               0         
_________________________________________________________________
dense_3 (Dense)              (None, 2)                 514       
=================================================================
Total params: 3,357,090
Trainable params: 3,355,426
Non-trainable params: 1,664
_________________________________________________________________
None
Train on 19841 samples, validate on 2205 samples
Epoch 1/50
 - 9s - loss: 0.4937 - accuracy: 0.7533 - val_loss: 2.0098 - val_accuracy: 0.6095
Epoch 2/50
 - 7s - loss: 0.2310 - accuracy: 0.9135 - val_loss: 0.3113 - val_accuracy: 0.8794
…
